best_model.pth (torch, 404459 bytes, 26 tensors)

classifier.0.weight f4 [256, 205]
00000000: e9be 283d 0b22 5e3b 6c09 dab8 c73a 63ba
00000010: e705 013a 695d d5ba af69 7e3a ebc8 9bba
00000020: 9f91 733a 5236 993a 1a1f 083b 77e3 0e3b
00000030: 8447 adb8 9621 db3a 3550 38b9 8c6f aab9
00000040: 2710 59b9 7b12 1c3a f426 8239 72b6 4538
00000050: 6978 243d 2047 6d3d fabd 8fbe c7b0 d9bd
00000060: 6df8 03bd 58f0 46be 3889 3fbe a9b9 82bb
00000070: b037 a0be 44fb 65be 8a54 8abe 0856 14bc
00000080: 0045 f0bd f061 143e 2458 733e 7737 6fbe
00000090: a014 30bd 4fd5 92be 0e67 c5bd 2a8a 51be
000000a0: 628a 5b38 87b4 f03c 3258 e53a 727d 183c
000000b0: 75b7 89bb e7bb a43b 584d 9e38 6856 843b
000000c0: 5746 573b e48d 92bb 3217 9cbb 7972 8cbb
000000d0: 2345 ab3b 87d7 083b 69df 913b ea16 bf3a
000000e0: eb6c 083a 2229 f63a 9303 ebba af2e 16b9
000000f0: 5dc9 0b3b 418b 833e 8b19 ba3e 676b 6f3f
00000100: 57bf 623e 5692 b5bd d884 f7bd ae9a 82bd
00000110: fd2d bd3c 845a d93a f7b4 193e 136f 593e
00000120: 5402 333e a730 0ebe ffed a2bd 04c5 993c
00000130: 7cb3 97be 447f d3be e0db e2bd f974 5c3d
00000140: 2f4b 27bd 63d9 223b ceb5 13bb 7fe4 f2ba
00000150: 24cd 5f3b fe75 acbb 8892 7c3b c98e 98bb
00000160: 28cd 5d3b fbeb 953a 5f77 33bc ec7f 08bc
00000170: d187 38bb 5c99 083a d7df 9ebb fec6 8b3b
00000180: 6167 18bc 144a 49ba d32f e7ba 7937 caba
00000190: c417 24b9 1124 b139 4e0b e73d 7563 bb3e
000001a0: a0bb e13e 0507 293e ea4e 3fbd b36f edbd
000001b0: 89ef 71be 9734 d03c 3010 9bbe 440f 68be
000001c0: ed3d 4e3e 86d7 4c3d a3aa 63be 883e 863e
000001d0: 2841 553e 8b2e 4c3e e376 d63c 28b1 89be
000001e0: f4f0 b1be acec 8c3b b32e 19b9 2f8a 823c
000001f0: 11d3 58b8 b6db cd3b b720 5fbb d3cc 653b
00000200: d852 853a 73df 833b 391e 9f3b 5a1e 1dbb
00000210: 293f a3ba 8bea 00bc ffa5 8f3a 8b55 5cbb
00000220: e799 d63a 6f0a 3bbb 031a 9e39 9fa9 cd3a
00000230: f2e2 06bb 7ccf 013b f30e 393a ad64 2d3e
00000240: 09f4 ac3e e678 703f 92d5 5dbc 4465 513e
00000250: 014c 2fbc fabc d83d 65c9 843e 8b6a df3d
00000260: 24eb 5b3d 0e69 723d 12df 87bd d52d b7be
00000270: 8776 5f3d a101 dfbc 417a 3ebd 5315 a9be
00000280: eb96 94bd 5f73 a9be 517b debd a344 8fb9
00000290: 484b 11bb d641 4bbb ff59 d4b9 344c 9aba
000002a0: 4c88 b23a 04bb 11ba 3cba 253b 8a56 fa3a
000002b0: 7cc1 27bc 0c59 90bb a3e7 9d3a 80be 643a
000002c0: 9f17 3f3b d79f 823b 8060 1f3b f106 cc3a
000002d0: ba8d 663a b5f6 2439 053d 0439 c7bc fa3a
000002e0: 58ad 10bf 174b 3c3e d2d0 6fbe 016d d5bd
000002f0: 7f93 a53d caff 0bbe 8d46 963c f668 0f3d
00000300: 1939 9ebe 03ab 3abe 2375 43be e0f4 89be
00000310: 7674 0ebe cb5e 3c3d 58bf 193e 700f 803d
00000320: 9550 1dbd 9fc7 8bbc bdb1 1ebe 622d 143d
00000330: ba8d 54b8 c72b 49b9 4824 de37 a779 aab8
00000340: 2f0d 01b9 d350 5339 e1aa 4bba bd71 16b9
00000350: 14ad ccb8 e20e fb39 ebad bdb9 e2fe d3b8
00000360: d0a5 7739 67d2 a33a 7fbd 143a fb64 8539
00000370: c7cd c4b8 12cd 2f3a 8663 4bba 1d96 c537
00000380: 7314 71b8 780d 54bd 1465 4cb9 9353 9d3d
00000390: 8849 633e ef7f fd3d 0ed8 883e 9bbd cebd
000003a0: a905 ddbb 35e5 04bc 1032 c8bb f9f6 febc
000003b0: 40ab 8cbd 1bfe aa3c fa5b 043e 2950 82be
000003c0: 2bf9 00be 85cb 1dbd 34f2 d8bc 270b 32be
000003d0: 5f4a 7ebe a945 4f39 d038 4439 2075 3637
000003e0: 7230 73b8 ffe5 b938 3912 b138 4095 1cb8
000003f0: b789 acb8 dc62 e3b6 d33d 1338 694c ec36
0.04119769 0.0033894803 -0.00010396805 -0.00086681213 0.0004921839 -0.0016278449 0.0009705079 -0.001188544
0.00092914136 0.0011689162 0.002077049 0.002180306 -8.262604e-05 0.0016718383 -0.00017577487 -0.00032508036
-0.0002070075 0.00059536815 0.00024824555 4.7138376e-05 0.040153895 0.05792916 -0.28074628 -0.10629421
-0.03221934 -0.19427621 -0.18704689 -0.0039894176 -0.31292486 -0.22459131 -0.27017623 -0.009053715
-0.11731911 0.14490485 0.23764092 -0.23361002 -0.04298842 -0.28678367 -0.09638797 -0.20462862
5.2342548e-05 0.029382957 0.0017497598 0.009307252 -0.004202778 0.0050272825 7.5484335e-05 0.0040386207
0.0032848322 -0.004472481 -0.0047635073 -0.004286107 0.0052267476 0.0020880417 0.0044516814 0.0014578972
0.00052042183 0.0018780569 -0.0017930142 -0.00014322506 0.0021329739 0.2569218 0.36347613 0.9352326
0.22143303 -0.08865802 -0.12085885 -0.06377159 0.023093218 0.0016582762 0.15010439 0.21233778
0.17481357 -0.13885747 -0.079555504 0.018770702 -0.29629123 -0.41308033 -0.11077094 0.05382249
-0.040843185 0.002484881 -0.0022538784 -0.0018531232 0.0034149373 -0.005263089 0.0038539488 -0.004655693
0.0033844206 0.0011438126 -0.010953753 -0.00833128 -0.0028157125 0.00052108406 -0.004848461 0.004265665
-0.009301991 -0.000767858 -0.0017638154 -0.0015427909 -0.00015649112 0.00033786942 0.11281453 0.36599317
0.4408846 0.16506584 -0.046706118 -0.115935706 -0.23626532 0.025415702 -0.30285788 -0.22662073
0.2014081 0.050010227 -0.22233061 0.26219583 0.20825636 0.1993963 0.026179736 -0.26892972
-0.34754145 0.0043006744 -0.00014608614 0.015935032 -5.1694984e-05 0.006282295 -0.00340466 0.0035064712
0.0010171784 0.00402444 0.0048558977 -0.002397439 -0.0012454736 -0.007868419 0.0010959505 -0.0033620324
0.0016372771 -0.0028540154 0.0003015549 0.001569081 -0.0020582047 0.0019807508 0.00070594175 0.16932936
0.33779934 0.93934476 -0.013539689 0.20448786 -0.010699273 0.105829194 0.25934902 0.10908993
0.053691044 0.05918222 -0.06634344 -0.35777155 0.054556396 -0.027222456 -0.04650331 -0.33024082
-0.07255348 -0.33095834 -0.108633645 -0.00027326224 -0.0022170115 -0.0031014583 -0.00040502843 -0.0011771978
0.0013620942 -0.00055591785 0.0025288006 0.0019099277 -0.010239001 -0.0044051465 0.0012047183 0.00087258965
0.0029158366 0.0039863396 0.0024318993 0.0015566034 0.00087949226 0.00015732164 0.00012611233 0.0019129746
-0.565145 0.1838802 -0.23419502 -0.104211815 0.08084773 -0.13671795 0.018344188 0.035012208
-0.30902937 -0.18229298 -0.19087653 -0.26944637 -0.13911614 0.04598884 0.15014398 0.062529445
-0.038406927 -0.01706296 -0.1549749 0.036176093 -5.0676732e-05 -0.00019185162 2.6481357e-05 -8.128891e-05
-0.0001230731 0.00020152637 -0.00077692984 -0.00014347486 -9.759716e-05 0.0004788554 -0.00036178468 -0.0001010874
0.00023617526 0.0012498618 0.0005673989 0.00025442973 -9.384337e-05 0.0006706278 -0.00077586656 2.3554132e-05
-5.7477922e-05 -0.051770657 -0.0001949261 0.07681956 0.22196019 0.12377917 0.26727337 -0.10094758
-0.0067450595 -0.008111288 -0.0061094835 -0.031123625 -0.06868601 0.02087312 0.12925711 -0.25451782
-0.1259505 -0.03852417 -0.026482679 -0.17387067 -0.24833058 0.00019767009 0.00018713181 1.0875316e-05
-5.7980833e-05 8.8643275e-05 8.443412e-05 -3.73323e-05 -8.2272505e-05 -6.776636e-06 3.510511e-05 7.0422434e-06

classifier.0.bias f4 [256]
00000000: 9928 a33a de1c 7039 9fa4 933d a051 9bbd
00000010: df07 cfba d7bd bb37 9c07 76ba 4a7d ecb9
00000020: 33f2 f83b ef89 a63b d0bc 613a 4ae9 31b4
00000030: 155b e0bb 2583 d4b7 2b8b 1d3c f652 ab3c
00000040: 6891 5bbc fa20 d2ac 30c5 0580 486b ac3a
00000050: d670 2a3b 0f7c c33c 172f 6cbb 9bfa 0d00
00000060: 56ff 1436 559f 7f3a 39e9 6f3e a727 0db9
00000070: 59c3 c93c fc54 ef36 3525 5dbb f34c 0280
00000080: 0f64 e93b 66ca f6ba 896d 6a3a f8f3 c63a
00000090: 7bda 1a3b 437f 043b 7062 4d3c 1ee9 f7bb
000000a0: 8d52 9dba 417a 69ba c1d7 fd3c e6c5 423c
000000b0: 12ed 0dba c95b b139 301c 4c39 840d 28ba
000000c0: 9c9d 463b a32f 7a3b 1deb 1eb8 a33a 153c
000000d0: 09dc dfba 918b 12bb 411c 1400 02f3 ddb8
000000e0: 1566 9c39 eee5 2a39 dffa 373a c838 dbbb
000000f0: bb1e 5a34 0aca d4b4 c52f 5dbb e303 703b
00000100: 3f0a 113c 91c6 9537 502a ad3a 9e04 48bb
00000110: c415 a0ba bce0 00af 9861 5ebb 6ff3 113c
00000120: 16e6 733a 4140 8e3c de87 1cbd 724b 3d39
00000130: b15c 1439 307b a6b9 205d 383a 72a9 1a3b
00000140: f6d2 a53b 4fb7 6e2e 0d2f 833c 92fc 0880
00000150: d88c 5337 3243 ef38 1423 a5bc 347e 8338
00000160: 6909 87bb a534 cd3a a162 9d3a 7c12 c2b7
00000170: 948b fe3c 163d d43c acce 4f39 b8e3 c93b
00000180: b550 1438 218a 98bb cca0 e039 c51b 1ebb
00000190: 1aa4 0200 1f39 bcb9 fb92 ebb6 61dd 05ba
000001a0: e100 0dbc e91c e33b 30f5 8ab9 7b75 053a
000001b0: ed98 d5ba 964a 1d80 b8d6 a73c 3b31 b13b
000001c0: c758 6fbc 73f2 1abc a145 383c ed1a eabb
000001d0: 2915 f737 a30d 2f39 4b81 68b9 e730 2f3c
000001e0: a670 78ba 5574 feb8 0b27 d2b7 7de5 9b3c
000001f0: 748e 4abb 3431 cd3b eb97 13ba 7a7a d7ba
00000200: eaa3 3939 91a7 6f3a 19c1 cc38 658d 51bb
00000210: c2d9 c43c c597 9c3b 515d 73b3 59b9 3b3b
00000220: 26b5 0ebe aab9 b43c ca51 e0b1 e22a 983b
00000230: 16c5 31ba 70b5 3439 19a3 ecb8 e5ac 10ba
00000240: 8471 0680 326f 8138 e94c ef3a 541f 6a3c
00000250: e20e 393b 3415 0a3b e16c 4439 448c a1b6
00000260: 7c57 beba 809f d3ba c86c 033a 3ba5 c93c
00000270: 5b70 febb 67a7 6f3b ad02 c43a 8a1f f93b
00000280: 3ae0 473c f0e7 5d3c b435 3bbb c98c bc3c
00000290: a16a 0280 2aaa 063c cd4c 09bb 475e 9b3c
000002a0: 39f7 b23c 0893 ac3a f729 023d 42d9 6d3b
000002b0: 25a5 0b80 0871 3139 1197 99bb 7340 8537
000002c0: 1be6 7b3b 0904 dd39 de47 cd3b 059a 983a
000002d0: 07cd de3a b177 2b3c 684d 57b8 845d b839
000002e0: 66ef 833a 8a7c 0500 0c4a 9738 3afc a9b8
000002f0: 02b0 87b9 d76d 37b9 f3cb 503c 4f87 e2b3
00000300: 83f5 adbb 286d 18b9 0549 1039 288f 7e3c
00000310: d903 3d3c 8f7b 52b7 a4d1 46bb 11f8 1dbc
00000320: 9df8 d6ba 0d6d a23b 2422 453b 5043 833a
00000330: 0408 783d 7766 323b 7617 913c 9d6c 523b
00000340: 5c23 d139 449f f7b8 f220 a5ba 72a3 6139
00000350: af17 b93b 052e 5abb 2bda 8e3a 13b0 82b8
00000360: c09d 14ba 14a6 af3b 7459 bc3a 32b8 2e39
00000370: 23b3 52ba fa61 89bb a2d8 ea3a 7e5b 4239
00000380: 4b6b fd3a ef3d b839 c163 5b3d 9d6b 47bd
00000390: 74ae 353c 4024 ac38 4bf5 37b9 f90b 763b
000003a0: c044 fc3a 1418 55b7 e608 25b9 5bd1 50bb
000003b0: ab37 a5bb 6670 3c39 9a8c 183a 2945 4c31
000003c0: 4083 afba b0ee 4e3c 0d15 363c 495b b537
000003d0: 0029 a53c 2360 a4b9 3e86 853a 75eb afb9
000003e0: 2df0 84bc ff6a 8ab0 82a6 0ebc b8c0 f7b9
000003f0: 2813 8cb8 8738 efbd 67f9 d8bc 2e12 3abe
0.0012448012 0.00022898937 0.07209133 -0.07583928 -0.0015795192 2.2380538e-05 -0.0009385289 -0.00045106775
0.007597232 0.005082361 0.0008611204 -1.656928e-07 -0.0068467953 -2.5333438e-05 0.0096157 0.020913582
-0.013401367 -5.97222e-12 -5.29915e-40 0.0013154531 0.0026007197 0.023862867 -0.003603881 1.283762e-39
2.2202344e-06 0.00097512204 0.23428811 -0.0001346158 0.024629282 7.1326485e-06 -0.00337441 -2.11275e-40
0.0071225236 -0.001882863 0.00089427136 0.001517891 0.002362876 0.0020217455 0.012535676 -0.0075656315
-0.0012002751 -0.0008906462 0.030986669 0.011888003 -0.00054140494 0.00033828456 0.00019465457 -0.00064107054
0.0030306345 0.0038175366 -3.78891e-05 0.009108218 -0.0017079125 -0.002236102 1.846846e-39 -0.00010583365
0.00029830696 0.00016298119 0.00070182787 -0.0066901185 2.0314012e-07 -3.963508e-07 -0.0033750397 0.003662341
0.0088525405 1.7854649e-05 0.0013211463 -0.003052033 -0.0012213518 -1.1721374e-10 -0.0033932682 0.008908137
0.0009304 0.017364623 -0.03821551 0.0001805255 0.0001414891 -0.0003175377 0.00070329197 0.0023599532
0.005060549 5.4277745e-11 0.016013646 -8.25289e-40 1.2609373e-05 0.00011408924 -0.020158328 6.270074e-05
-0.004120995 0.0015655948 0.0012007543 -2.313521e-05 0.031072415 0.025908034 0.0001981805 0.0061611794
3.5361114e-05 -0.004655138 0.00042844412 -0.0024125439 2.4254e-40 -0.00035900713 -7.0206565e-06 -0.00051065354
-0.008606167 0.0069309366 -0.0002650409 0.00050910533 -0.0016296186 -2.689986e-39 0.020488128 0.00540748
-0.0146085685 -0.009457218 0.01124707 -0.007144323 2.9454548e-05 0.0001669438 -0.0002217341 0.010692812
-0.0009477235 -0.00012133332 -2.5052132e-05 0.019030327 -0.0030907663 0.006261969 -0.00056302425 -0.0016439699
0.00017704038 0.0009142096 9.763445e-05 -0.0031975147 0.024029616 0.0047788345 -5.6662717e-08 0.0028644411
-0.1393629 0.022061188 -6.5285564e-09 0.004643784 -0.0006781382 0.00017233728 -0.00011283736 -0.00055189274
-5.91735e-40 6.171911e-05 0.0018257174 0.014289696 0.002823763 0.0021069767 0.00018732577 -4.814503e-06
-0.0014521922 -0.0016145557 0.0005013463 0.02461492 -0.0077648587 0.0036568285 0.0014954411 0.0076026367
0.012199456 0.013544068 -0.0028565945 0.02301635 -2.21922e-40 0.008219281 -0.0020950318 0.018965853
0.0218464 0.0013166377 0.031778302 0.0036292826 -1.069433e-39 0.00016922143 -0.004687198 1.5884847e-05
0.0038436714 0.0004215541 0.0062646708 0.0011642581 0.0016998359 0.010465548 -5.1332085e-05 0.0003516489
0.0010065853 5.03854e-40 7.2140334e-05 -8.105529e-05 -0.00025880343 -0.00017493159 0.012743938 -1.05485576e-07
-0.0053088083 -0.00014536513 0.00013760112 0.015537061 0.011536562 -1.2545744e-05 -0.0030337358 -0.009641663
-0.0016400997 0.0049568475 0.0030080164 0.0010014568 0.06055452 0.0027221718 0.017711382 0.0032108196
0.0003988993 -0.00011807543 -0.001259832 0.0002151856 0.0056485753 -0.003329159 0.0010898759 -6.2316794e-05
-0.00056692585 0.005360374 0.0014369921 0.00016662551 -0.0008037558 -0.004192588 0.0017917345 0.00018535365
0.0019334344 0.0003514136 0.05356193 -0.048686612 0.011088956 8.208351e-05 -0.00017543619 0.0037543757
0.0019246563 -1.27013955e-05 -0.00015738941 -0.0031863067 -0.0050420365 0.00017970949 0.0005819291 2.972522e-09
-0.0013390556 0.01263015 0.011113417 2.161939e-05 0.020161152 -0.00031352145 0.0010187102 -0.0003355403
-0.016227806 -1.0071232e-09 -0.008706691 -0.00047255098 -6.679288e-05 -0.116807036 -0.026486112 -0.18170998

classifier.2.weight f4 [256]
00000000: beef 853f 6ff6 063e 8ab4 c53f 1153 873f
00000010: 6761 2f3f fd95 533f 1fb9 dd3f 3b1c a93f
00000020: db46 d43f 80f0 8c3f 1606 7a3f 8b67 683f
00000030: 484c 903f b188 283f f9ec a73f 549e ba3f
00000040: 1ded 993f e030 a33f 21ec 953e 7b7c 7c3f
00000050: b828 253f 5662 df3f e700 a73f 2b25 5a3e
00000060: 0406 4d3f 052f 6d3f b2d1 863f cf8e 7d3f
00000070: c1d8 a53f 0126 123f ab8e 873f 9fb1 333e
00000080: 3e3f a53f a7f5 593f 27f5 dd3e 09b4 d23f
00000090: 0a43 b33f e06e eb3f 1093 2e3f 474d e83f
000000a0: 9c43 e13e dde4 063f c467 c53f d3a2 e13e
000000b0: 9a60 183f 9694 5d3f 2682 5c3f 6b4b 173f
000000c0: 330b 163f 02b7 9c3f 7268 683f ff90 e73f
000000d0: 652a dd3f fb83 6f3f 1139 b73e a5e4 9d3f
000000e0: e169 203f 8b27 243f 2df7 ae3f e3c9 ca3f
000000f0: b852 953f e786 6f3f 52b2 763f 4030 c53f
00000100: 3f61 e73f 6e34 943f 06d3 b33e d236 ab3f
00000110: 4b4c 893f 7b06 df3e 4ecf 8d3f 4cc9 3d3f
00000120: 22e9 c23f 48de a53f df16 a23f 181d 0b3f
00000130: a168 4d3f b1f6 963f 397e 813f c66d 923f
00000140: e2f1 b23f a48b 993f 49de f13f 72d3 443f
00000150: e498 d93e 5a61 663f 9f27 0040 9ce1 403f
00000160: 43b1 243f cf52 3b3f 5f59 903f f9cd 693f
00000170: 1346 c23f e562 9f3f 33eb 663f 2a5c c93f
00000180: f134 ca3e 190d a63f 6a84 923f d30a 893f
00000190: 32b9 0c3f 44ea b13f a1c5 9a3e b50f 733f
000001a0: 793d bf3f 5202 283f 4fe4 cc3e 270c 293f
000001b0: 9cab b53f 9092 573c 3b56 903f 4fbf c53f
000001c0: fb20 773f 022c 563f 2f1d 8f3f 0105 1d3f
000001d0: 17e3 433f 2dfe 6a3f 2cd8 6d3f 43cc a83f
000001e0: 1b4e 9c3f cbed 093f a34d a43f 9392 0940
000001f0: 165e 5a3f 744d c73f c0bc 873f 3fc8 373f
00000200: 0683 483f d246 a23f 7814 693f e636 0540
00000210: e94b e63f b793 613f 45f4 9d3f dab3 723f
00000220: 539d 813f 7928 f33f 3bce f93d 01dc d83f
00000230: 39fb c63f f0e8 003f 4d81 383f a3b0 0f3f
00000240: e128 d73c 7b41 a03c c35b 8c3f 8ee5 0940
00000250: f0e4 c13f 63e3 f53f eb68 073f f41b 3f3f
00000260: 5a69 693f cdea 843f 2d48 243f 2e66 963f
00000270: 22d6 233f d6f0 883f 4b8d 813f df23 1f3f
00000280: 11b7 ed3f d320 b43f e384 9c3f ed95 ae3f
00000290: f412 aa3e fa70 c83f 1a87 683f 0ca2 893f
000002a0: ccf4 513f e419 573f 26e2 e93f f8ca 9d3f
000002b0: 10c2 023e 54e5 863d d7b9 933f 8c1d cf3e
000002c0: 3d83 8e3f f6b8 603f fead d43f 61c1 863f
000002d0: a134 0e3f adb8 6f3f 4903 643f cabb a93f
000002e0: 4f5d 123f de6e 463f c502 373f 7d10 843f
000002f0: ebf3 293f 2492 763f eb0d d73f 8afd fc3e
00000300: 2b59 a83f 7487 ba3f 3d40 d73e cbb6 b63f
00000310: 78a1 0040 043f fa3e bf6e 8e3f fbbb b03f
00000320: 2750 863f 6fa4 2a3f 37a1 a23f b330 563f
00000330: e715 d63f 9c9e 713f 9f29 933f c44b 7d3f
00000340: db1e c13e b451 563f be26 c63f 61e5 553f
00000350: 561b ab3f 5f60 223f 3da5 ba3e d3e6 003f
00000360: 72f3 383f 701b 3a3f c622 7b3f 98a7 483f
00000370: 5f26 343f bab1 973f fa32 e43e 2fec 253f
00000380: eda3 b23f 8194 523f 8dad e83e 018b e13f
00000390: ed48 eb3f 728e 213f f4ab 2b3f 64f4 a33f
000003a0: 27ba 793f 5db0 833e fa30 243f f0a5 b23f
000003b0: 7b8a b73f d52c d33e f9d3 4a3f b722 383f
000003c0: 2e65 443f 3411 bf3f 7ada aa3f ed68 f13e
000003d0: 68a5 0f40 eddb 083f c3e8 8a3f 2350 483f
000003e0: 7d43 0340 8e92 273f 7355 a43f 5703 683f
000003f0: 5442 a33f 92ea 4b3f a49d c23f 3ff1 1c3f
1.0463789 0.13179944 1.5445721 1.0572225 0.68508 0.8265074 1.732212 1.321174
1.6584123 1.1010895 0.97665536 0.90782994 1.1273279 0.65833575 1.3119193 1.4579568
1.2025486 1.274929 0.29281715 0.9862744 0.64515257 1.7451885 1.304715 0.21303241
0.80087304 0.9264987 1.0532744 0.99046034 1.2956773 0.5708924 1.0590414 0.17548226
1.2909925 0.8514046 0.433511 1.6461192 1.4004834 1.8393211 0.6819315 1.8148583
0.43996894 0.5269297 1.5422292 0.44069538 0.595224 0.8655485 0.8613609 0.59099454
0.5861084 1.224335 0.9078437 1.8091124 1.7278563 0.9356076 0.35785726 1.2335402
0.6266156 0.6412284 1.3669182 1.5842861 1.1665869 0.9356522 0.96365845 1.540535
1.8076552 1.15785 0.35121936 1.3376105 1.0726408 0.43559632 1.1078889 0.7413528
1.5227396 1.295846 1.266323 0.5434127 0.80237776 1.1794034 1.0116645 1.143975
1.3980067 1.199574 1.8895961 0.7688514 0.4249946 0.89992297 2.0024183 0.7534425
0.6433298 0.7317323 1.1277274 0.91329914 1.5177635 1.2452055 0.90202636 1.5731251
0.39493516 1.2972747 1.144666 1.0706428 0.54970086 1.3899617 0.30228904 0.9494584
1.4940635 0.6562854 0.40017936 0.6603417 1.4192996 0.013157502 1.1276315 1.5449008
0.965347 0.836609 1.1180781 0.6133576 0.76518387 0.9179409 0.9290798 1.3187336
1.2211336 0.5387847 1.2836193 2.1495712 0.85299814 1.5570512 1.0604477 0.71789926
0.78324926 1.2677863 0.9104686 2.0814757 1.7991916 0.8811602 1.234017 0.9480568
1.0126137 1.8996726 0.121975385 1.694214 1.5545417 0.50355434 0.720723 0.561289
0.02626461 0.019562474 1.0965503 2.154636 1.5147991 1.9210018 0.5289447 0.7465203
0.9117638 1.0384156 0.6417263 1.1749933 0.63998616 1.0698497 1.0121244 0.6216411
1.8571492 1.4072517 1.2228054 1.3639504 0.33217585 1.5659478 0.9083115 1.0752578
0.82014155 0.8402388 1.827214 1.2327566 0.12769341 0.065867096 1.1541089 0.4045223
1.1133801 0.8778223 1.6615598 1.0527765 0.55549055 0.9364117 0.8906751 1.3260434
0.5717363 0.7751292 0.714886 1.0317532 0.66387814 0.9631674 1.6801122 0.49412185
1.3152212 1.4572587 0.42041197 1.4274534 2.0098553 0.48876202 1.1127547 1.3807367
1.049321 0.66657156 1.2705449 0.8366806 1.6725434 0.94382644 1.1497077 0.98943734
0.37718853 0.8371842 1.5480573 0.8355313 1.3367717 0.634283 0.36454192 0.5035221
0.7224647 0.72698116 0.98099935 0.7838073 0.7037105 1.1851113 0.44570142 0.6481351
1.3956276 0.8225785 0.4544491 1.7620546 1.838163 0.6310798 0.67059255 1.2808957
0.9754967 0.25720492 0.6413723 1.395689 1.4339136 0.41245142 0.79229695 0.7192797
0.7671689 1.4927125 1.3347924 0.47150365 2.2444706 0.5346058 1.0852283 0.7824728
2.0509942 0.65458 1.2838577 0.90630096 1.2754617 0.796548 1.5204358 0.6130561

classifier.2.bias f4 [256]
00000000: 15a0 8ebc f3a6 fc3d fa62 ba3d 906c 073d
00000010: 09e4 14be 5f54 233e 4928 3c3f a327 773e
00000020: 1847 153f 99cd fb3d 5438 573e ed9a acbd
00000030: 828d 313e c4d4 c43e 481b 253e b1ab 133f
00000040: 19ea 9a3d d6d7 5b3d 87eb c03d 4dab 7b3e
00000050: fe76 243d bb7f f43e c624 953d 2499 91bd
00000060: c23e 113e 66e6 633d 55b0 cd3e 6dec 6b3e
00000070: 779f be3e 4940 0c3e e504 d43b 460e a73c
00000080: 2a3a c7bd 0b6a 9abd 15fc 0fbd 7c12 123f
00000090: 1866 9d3d 6823 0c3f a75c c83d 5e1e e03e
000000a0: 5525 b83d 56a5 c33e 990e 433e bd21 a5ba
000000b0: 33d4 3c3e bbd0 123e 91fb b83d bb0a da3d
000000c0: 919a fdbd 85fe 00be a0c2 423e add5 8d3e
000000d0: 6fcf 513f f46b 3f3e 9afa 17bd e02a babd
000000e0: 212a 683d e383 253d 3ce1 0f3f 1a25 2a3f
000000f0: ea6f 55be f875 113e 3c4a 7a3c be75 d63e
00000100: f1e5 f93e 59a7 99bd 4cd4 6c3c fa0a 9d3e
00000110: e2d1 643e 8974 e63d 1e26 cf3b 2a62 06be
00000120: d192 843e 69a6 dd3e 47a3 e5bd a655 263e
00000130: 65e0 713e 2fee 1e3d ae39 20bb 6ec7 1b3e
00000140: c67b f13e 63e9 90bd 0917 dc3e 1696 16be
00000150: 1abb 8bbb 8b5a 903d 4f05 b43e 31b6 e13e
00000160: fcd9 4e3b c654 bd3d 6260 133e 417f a43d
00000170: 357e 8c3d 813f 173e 694c ae3d a67c c33e
00000180: d856 a13d c515 4a3e 0949 5b3e cc09 263f
00000190: 26a0 3abe 9288 ae3e dcc0 053e 4c3a a03e
000001a0: c291 8a3e 36f1 843e dabe ab3e 00e3 ab3d
000001b0: 2925 0c3f a623 f13b d2d1 0ebd 0d7a 163f
000001c0: 7d2d 883e df68 793e c07b 7b3c 94f2 19bc
000001d0: 2475 073e 5240 bbbc a66c 273e f822 fd3e
000001e0: f450 f53e 529e dd3d ebe6 aa3e 20aa 1d3f
000001f0: 4b5f c73e c9b8 403e 45b6 4e3d 3d21 a13c
00000200: eb23 263e 7783 203e 7ace a73d 6b24 363f
00000210: 70ec 4d3f a707 083e 64eb 853d 8c56 1b3e
00000220: 125d 0e3e 27bf 2d3f cd6b 3bbd c4c6 193f
00000230: ad0d 053f d199 e1bd 6626 11bd 6cea d9bd
00000240: d0a8 9ebe a6a6 dbbd b2c9 dc3e a316 113f
00000250: f500 d73e bccc bc3e 7aaf bb3d 970c 6d3d
00000260: 98bc 743d a3ac ebbb cf84 e7bc 83a9 0c3e
00000270: d858 273e d61f cabd 8b88 353e 2e09 0d3e
00000280: fe67 133f 2583 ab3d 991a a13c b951 113f
00000290: e26b af3d 356d 093f 29dc 223d 6bca 563d
000002a0: 7c35 a03d 170b 3c3e 6a23 3e3f 2769 a33e
000002b0: 7288 2e3d 64f5 6b3e ec80 833c d427 973c
000002c0: f060 26be f251 803e 8f09 4e3e 9bbb 4e3e
000002d0: f717 393d bd62 903e 04ca 213d a2a4 c73e
000002e0: 2089 f63d a605 7cbd 0744 cfbd 940d aa3e
000002f0: 7f49 b83d 06ef 193d 5798 e53d 5542 debc
00000300: 42a5 ea3e 700c b33e e8a7 0b3e 98ec f43e
00000310: c21c 283f 820a 0bbe d855 8e3e 3184 f43e
00000320: 4851 9e3e a498 563e 1b1a db3e 2be7 133e
00000330: a94a bf3e ae5b 2e3e 13ba 2f3e 3fb0 373e
00000340: 6dd5 1dbe 5c65 c43e 00de 213f 1950 703e
00000350: 0a8f e93e 9484 793e ba7f 25bd be6e b03d
00000360: bce5 5e3c 05ef 343c 2246 983e 9883 253e
00000370: 2d71 cc3b 5775 00bd 9236 be3d 8975 b0bd
00000380: 41c6 123f c6d5 883e 7d99 303e 9f0c 1c3f
00000390: e930 113f 50ef 453e 3d97 a33d 8a15 0f3e
000003a0: 1248 0e3e 00e9 aa3c 116e 8c3e da89 c33e
000003b0: 2d7e b83e 687c 063e 6ff7 5c3e 422d 0b3e
000003c0: 48e5 843e f7e6 ef3e c37e af3e 8de7 2b3d
000003d0: 22a0 403f 74a1 873d 8e90 ae3d 1053 9e3e
000003e0: 9d87 0b3f ac90 a93c 718e ef3e 6e2f 23ba
000003f0: d0e3 f93e 792a 4dbe 0a2a fe3e 1c07 803d
-0.017410317 0.123365305 0.091009095 0.033062518 -0.14540114 0.15950154 0.7349897 0.24136214
0.58311605 0.12295074 0.21017581 -0.08427987 0.17339137 0.38443577 0.16123688 0.57683855
0.07564182 0.053672634 0.09419923 0.24577065 0.040152542 0.477537 0.072824046 -0.071092874
0.14184096 0.055639647 0.40173593 0.23039408 0.37231037 0.13696398 0.00647031 0.020392548
-0.09727891 -0.07539757 -0.035152514 0.57059455 0.076854885 0.54741526 0.09783297 0.43773168
0.089914955 0.3821208 0.19048537 -0.0012598556 0.18440323 0.14337437 0.090323575 0.10646578
-0.12382997 -0.12597091 0.19019556 0.27702084 0.81957144 0.18693525 -0.037104227 -0.09090209
0.056680802 0.04040898 0.56203055 0.6646286 -0.20843473 0.14205158 0.015276488 0.41886705
0.48808244 -0.07502622 0.014454912 0.30672437 0.22345689 0.11252696 0.0063216826 -0.13123384
0.25893262 0.43291023 -0.11212783 0.1624361 0.23620756 0.03880137 -0.0024448442 0.15212795
0.47164744 -0.07075765 0.42986324 -0.1470569 -0.0042642476 0.0704852 0.351603 0.44084314
0.0031563034 0.09244685 0.14392236 0.08032084 0.068600096 0.14770319 0.08510668 0.38181037
0.07877892 0.19734867 0.2141458 0.648587 -0.18225154 0.3408857 0.13061851 0.31294477
0.2706433 0.2596528 0.33544046 0.08392906 0.547442 0.007358986 -0.03486807 0.58779985
0.26597205 0.24356411 0.0153493285 -0.009396214 0.1322828 -0.022857819 0.1635004 0.49440742
0.47913325 0.10821213 0.333793 0.61587715 0.3893989 0.1882049 0.050466795 0.01966917
0.16224639 0.1567515 0.08193679 0.7114932 0.804389 0.13284169 0.06539038 0.15169734
0.13902691 0.678698 -0.045757104 0.6006892 0.5197399 -0.11015666 -0.03543701 -0.106404155
-0.3098817 -0.10725145 0.4312263 0.56675166 0.41992918 0.3687495 0.09164329 0.057873335
0.05975017 -0.0071922108 -0.02826157 0.13736539 0.16342485 -0.098693535 0.17727868 0.13773033
0.57580554 0.08374623 0.019666003 0.56765324 0.08565499 0.5368226 0.039760742 0.052439135
0.07822701 0.18363605 0.7427279 0.31916162 0.042610593 0.23042828 0.016052686 0.018451609
-0.16247916 0.2506252 0.20120834 0.20188753 0.04518887 0.2820033 0.039499298 0.38992792
0.12037873 -0.061528824 -0.10120397 0.33213484 0.08998393 0.037581466 0.11210697 -0.027131239
0.45829207 0.34970427 0.1363827 0.47836757 0.6566888 -0.13578227 0.2779987 0.47757104
0.30921388 0.20956665 0.42793354 0.14443652 0.3736165 0.1702716 0.17160825 0.17938326
-0.15413447 0.3835858 0.6322937 0.23468055 0.45616943 0.24366981 -0.040405013 0.086148724
0.013604578 0.011043315 0.29741007 0.1616348 0.0062390775 -0.031361904 0.09287752 -0.08616168
0.5733376 0.26725596 0.17246051 0.6095676 0.56715256 0.19329572 0.07987831 0.1397306
0.1389468 0.020863056 0.27427724 0.3819111 0.36033764 0.13133395 0.21578763 0.13591483
0.25956178 0.468559 0.342764 0.04196887 0.75244343 0.066225916 0.08523665 0.30922747
0.54503804 0.020698868 0.46788362 -0.0006225024 0.4880662 -0.20035733 0.49641448 0.06251356

classifier.2.running_mean f4 [256]
00000000: ea74 1147 a504 bc40 0970 cc45 66f0 1f41
00000010: af31 e346 73a2 bb42 1da3 3b46 fb05 9345
00000020: 866d 6946 5dcb 9b45 7404 8e41 3247 b43f
00000030: bbcd 7d43 425d 1f48 38be ad43 b121 7046
00000040: 1e7b a842 48e9 bf40 0400 0000 6ae5 b641
00000050: 9d83 6741 477f b046 8a7b c941 0400 0000
00000060: f993 f640 45ce 7740 ed17 8447 1c7a 2941
00000070: e84f c544 9482 0047 b5cc ff41 0400 0000
00000080: 4ac4 4642 e538 1642 08ad b741 00f6 1b47
00000090: bc84 2145 6cad 2847 a5f9 3742 c10f 7446
000000a0: 5646 1141 2a4e 5241 8974 a746 4505 4c42
000000b0: 135e 0942 eaac cb41 229b b940 73af 0243
000000c0: 9b67 ca41 74a6 5b41 e331 b740 d473 8a46
000000d0: 7a6c 1d47 d5d7 2741 0400 0000 2bf4 0b41
000000e0: 764d 9e41 e6c5 7b41 2599 7c47 aac6 1c47
000000f0: f480 5336 1bf2 183e 4230 9246 cb66 f946
00000100: c1c8 2947 9ae0 973f e6e3 1e47 6c4a 8946
00000110: dca6 e443 2b78 153e 5141 8941 0937 dd44
00000120: c104 1045 d05a 5a46 68dc f915 c80c 0441
00000130: 7a0c 3d41 1d5f b140 e7ef 2141 cce2 8f42
00000140: 18ae c646 2e36 fa3f dcef 2845 0400 0000
00000150: aadf 9c3f 74cb 1c40 3b38 1746 aea6 fe46
00000160: 6784 2643 0425 e142 b654 3c46 7bc4 3041
00000170: 4eea e641 8f84 ad43 dec1 2140 f31f e845
00000180: bc54 7840 9782 2f42 032b 3344 b631 d347
00000190: 0400 0000 6be9 0b47 c145 a147 5d31 5547
000001a0: c764 4046 2d03 e542 d9fa 7f46 3ba9 3241
000001b0: 7ec7 1347 0400 0000 52b0 aa43 75bb ed46
000001c0: 5c75 4443 b5ab b743 6de6 2541 d332 3945
000001d0: 384c c547 df9a e641 fe67 9440 6878 c146
000001e0: 8224 8a46 c5ea 0141 855a 1d48 33ce b545
000001f0: e07e 4642 ed31 9341 74cf d946 9c11 2541
00000200: ca03 4042 010a 0847 19a8 f540 170e b046
00000210: bd1c 5446 85e3 2b42 6865 063d 2ddd 3442
00000220: 64c6 8d42 ca44 a546 bca3 893f c471 3647
00000230: 4fdc b646 f483 5d42 3cfd 1d44 9575 1d41
00000240: 0400 0000 d224 8641 dba6 1e47 0afa ca45
00000250: 4386 0447 7574 2546 9e95 0744 75e2 0840
00000260: 79f7 2742 0902 3241 726c 4741 f2b2 5f43
00000270: 41a8 8542 9a40 4d45 da58 0646 f1e6 bc42
00000280: 4cbf 6b46 85d2 f141 9614 3d43 e0a9 6b46
00000290: 0400 0000 779c e546 361a 2443 33e0 0a45
000002a0: e6c3 e742 edbd 8c41 5a5a 3246 dbe7 1d47
000002b0: 0400 0000 43a0 8a40 f1f3 2c42 b705 b43e
000002c0: aca2 ab41 81dc 0142 e4f8 1f43 72bd a642
000002d0: 9661 3141 dedd 9f46 db06 b541 7021 c146
000002e0: 2545 d241 0400 0000 94f9 373e 83c2 b347
000002f0: 46fe 5740 b8f5 363f 5653 da42 a94d 483c
00000300: a7f1 bb46 cbd6 1b43 99ed f940 ebe5 7646
00000310: 2d0c 3d46 4af9 ab41 b6f0 9b47 006b c246
00000320: 4683 d846 8e96 aa42 c7ff 2046 8a6d de46
00000330: a466 2845 f2e0 ed40 d27d 1f43 2315 3241
00000340: bdc5 d240 bb70 9947 606e 2b47 988f 5b45
00000350: 8e84 d245 b4ef 9b44 fc74 7a41 24a0 1f40
00000360: 0685 4240 e9a0 3241 e681 a445 3768 8f41
00000370: 15a3 6c40 81cd 6740 63f5 1341 0334 9142
00000380: 8107 4e47 2c87 bf47 49db 2e41 85d8 4f46
00000390: 1948 3046 5a03 9341 09a9 9541 7415 1e43
000003a0: ef3c 9147 426e 8f40 7002 0c48 0d90 7a46
000003b0: 012c 4646 914f b040 87c1 f043 df47 db3f
000003c0: 635a 0242 480e 4d46 1bb1 d245 e60e 8540
000003d0: ee6c 2246 5cb3 0c41 709c 6e44 c04a 7047
000003e0: bfaa 6b46 a62e 873f d0d5 ea43 45a7 ae42
000003f0: 3ac6 6547 47a5 123f 30af cd46 3043 3d3d
37236.914 5.875567 6542.0044 9.996191 29080.842 93.81728 12008.778 4704.7476
14939.381 4985.4204 17.752174 1.4084227 253.80363 163189.03 347.48608 15368.423
84.24046 5.9972267 6e-45 22.862019 14.469632 22591.639 25.185322 6e-45
7.705563 3.8719647 67631.85 10.592312 1578.4971 32898.58 31.974955 6e-45
49.69169 37.55556 22.959488 39926.0 2584.296 43181.42 45.993793 15619.938
9.079672 13.144083 21434.268 51.005146 34.34187 25.45943 5.800187 130.68535
25.300589 13.728138 5.7248397 17721.914 40300.477 10.490193 6e-45 8.747111
19.787823 15.735815 64665.145 40134.664 3.151651e-06 0.14936106 18712.129 31923.396
43464.754 1.1865418 40675.9 17573.21 457.3036 0.14596622 17.156893 1769.7198
2304.297 13974.703 1.0091804e-25 8.25312 11.815546 5.5428605 10.12107 71.94296
25431.047 1.9547784 2702.9912 6e-45 1.2255757 2.4499178 9678.058 32595.34
166.5172 112.572296 12053.178 11.047969 28.864407 347.0356 2.5274577 7427.9937
3.8801718 43.87753 716.67206 108131.42 6e-45 35817.418 82571.51 54577.363
12313.194 114.5062 16382.712 11.166316 37831.492 6e-45 341.3775 30429.729
196.45844 367.34146 10.368756 2963.1765 101016.44 28.82562 4.6376944 24764.203
17682.254 8.119817 161130.08 5817.775 49.6239 18.399378 27879.727 10.316799
48.0037 34826.004 7.6767697 22535.045 13575.185 42.972187 0.032811552 45.215992
70.88748 21154.395 1.0753093 46705.766 23406.154 55.37886 631.9568 9.841207
6e-45 16.767979 40614.855 6495.255 33926.26 10589.114 542.33777 2.1388218
41.991673 11.125497 12.463976 223.699 66.82862 3284.0376 8598.213 94.45106
15087.824 30.227793 189.08041 15082.469 6e-45 29390.232 164.10239 2222.0125
115.882614 17.592737 11414.588 40423.855 6e-45 4.332063 43.238224 0.3516061
21.45443 32.465336 159.97223 83.37001 11.086325 20462.934 22.628347 24720.719
26.283762 6e-45 0.179663 92037.02 3.3748946 0.7146869 109.162766 0.012225547
24056.826 155.83904 7.8102536 15801.4795 12099.044 21.496723 79841.42 24885.5
27713.637 85.29405 10303.944 28470.77 2694.415 7.433709 159.49149 11.13016
6.586638 78561.46 43886.375 3512.9746 6736.5693 1247.4907 15.653561 2.4941492
3.039369 11.164285 5264.2373 17.925886 3.6974537 3.621918 9.247409 72.601585
52743.504 98062.34 10.928536 13302.13 11282.024 18.376637 18.707537 158.0838
74361.87 4.482209 143369.75 16036.013 12683.001 5.5097127 481.51193 1.7131308
32.58827 13123.57 6742.138 4.1580687 10395.232 8.793789 954.44434 61514.75
15082.687 1.0561111 469.6704 87.3267 58822.227 0.57283443 26327.594 0.046206653

classifier.2.running_var f4 [256]
00000000: 76ed 7c4f ddf8 2d45 dba3 5d4d 1a0d 8b46
00000010: 01a7 814f 844e b649 bb68 fa4d 97a8 824d
00000020: 090d 5e4e c68e 184d 473e f546 e2ec c444
00000030: aac8 a04a d9a8 c950 e1cf 224c 92ae 2b4e
00000040: 09f9 5549 a5bf cb48 0400 0000 0472 0047
00000050: 56e5 a146 5567 414f a2c6 c546 0400 0000
00000060: db53 a345 188d c444 c5f1 5a50 a980 6f46
00000070: a601 544c 97f2 224f fbf0 a947 0400 0000
00000080: f8fb 0348 c53a c147 c851 dd46 8635 624f
00000090: 6d0d 354d 51eb a84f b4fe d247 b08f 044e
000000a0: 5d62 ba45 6468 3c46 578b e04f 36e0 aa47
000000b0: b255 8847 f0b6 3c49 b664 8045 8d60 584a
000000c0: 21cc 0547 3c4a 1d46 d5b6 8945 a1b4 9a4e
000000d0: f3b6 354f 1ee5 d845 0400 0000 5994 1046
000000e0: f71f 3f47 09fe 8646 e740 4250 e1c0 9c4f
000000f0: b19a 8737 548b c241 574f 334f 0df1 cf4f
00000100: 1886 0a50 d6c6 1645 547c 1650 5391 fe4e
00000110: 53d5 ea4b c586 1541 ddf4 5947 09d0 544c
00000120: 2365 0f4d 6f96 124e 00fb 6514 87d8 ec45
00000130: 666b 0146 3e79 d445 d01a 0446 edc9 7148
00000140: 8de8 524f 4f9e 3047 33e1 7d4c 0400 0000
00000150: 9889 fc43 edc1 7c44 a8d0 ba4d 4283 974f
00000160: 490f a64a db18 c648 4762 0d4f aa6a 1046
00000170: c1df a848 c8b6 d949 aa03 8344 0695 a44d
00000180: 629b f444 5760 b547 ba25 5c4b e2f2 8f50
00000190: 0400 0000 f4ef 564f 7f7a b74f 9a8c ae4f
000001a0: e966 be4e 2f08 cc48 93ea bb4e 3848 8746
000001b0: 3396 c94f 0400 0000 44ad e84a f5d6 7b4f
000001c0: 41fa 8149 c783 8b4b 1cfd 2246 3402 b94c
000001d0: ade6 d250 b6d3 7647 6313 3a47 1cd6 f54e
000001e0: ea73 9c4e f06f 3946 2d24 3351 76bf ef4c
000001f0: e2e5 4249 4b6c 9246 89a1 f74f 27bc d145
00000200: a90b fa49 f513 b14f 9d24 cd45 a1c8 244f
00000210: 912b e14d 654b c847 2223 ce40 f886 cb47
00000220: d340 394a 85f9 774e 08c5 ce43 83aa df4f
00000230: db7a c14e dafd b249 fe8a 7a4c 4a2b 3746
00000240: 0400 0000 4f5b 9946 662b 724f 0d43 8f4d
00000250: 12be 454f 95ea 184e 2043 054c b4c9 4c45
00000260: 5f09 bc47 6b5b f945 3874 5946 fb40 024a
00000270: a268 0b48 1fc4 944d 1f2d 074e 45c0 e948
00000280: 12ae 614e 8852 9647 7d08 284b 0f53 464e
00000290: 0400 0000 fe67 724e d747 164a f4f0 664c
000002a0: 4764 f148 1fc6 d546 2ab5 114e 2d78 1250
000002b0: 0400 0000 9e9d 2f45 4f12 e947 ab65 3542
000002c0: 9661 e246 a1e8 7e47 b458 5f4a 35b5 fb49
000002d0: 3be7 c245 a4f9 894e 6b04 be46 12f0 3e4f
000002e0: c6a6 5e47 0400 0000 a669 b142 f1c1 9650
000002f0: 4117 3145 f6f3 6a44 27a2 6b49 4d49 2d3e
00000300: 7a9f da4e 2fdb 2c49 fe4f ba45 3a97 3b4e
00000310: 44b0 504e 26c9 0247 7238 1a50 778b 214f
00000320: b647 0c4f b128 4348 921b ed4d 1cd3 ca4f
00000330: b109 784c 62d1 c945 8d12 3349 fbbe 4346
00000340: 2656 2a46 0abe e24f b993 a34f 2d73 a94d
00000350: bb30 6c4d 9406 0a4c 6126 8c46 51fb 5545
00000360: a6bb e344 1133 1446 6cb4 c24d 1a58 6346
00000370: bbb7 0945 11db d444 1c62 ef45 d8e6 284a
00000380: 8775 be4f a8b8 ef50 a654 2546 3dd8 2d4e
00000390: 0067 9f4d 9b38 d346 ad39 b346 6701 3549
000003a0: 763a eb50 7f45 1e45 bdef e950 a982 394e
000003b0: 24a7 244e 10a5 8945 8b64 b54b 27c8 5044
000003c0: 13e4 a147 9536 d34e 4152 574d bcee bb44
000003d0: bf73 924d 0503 f145 76a5 d94b 2004 5850
000003e0: 0911 5f4e 3e47 7e44 572a 4f4a d00a 6f48
000003f0: 00fe 814f 6745 a643 7ed2 bd4e cbd1 1a40
4.2434207e+09 2783.554 2.3240645e+08 17798.55 4.3504113e+09 1.4934565e+06 5.2514595e+08 2.7401085e+08
9.3134906e+08 1.5996835e+08 31391.139 1575.4026 5.268565e+06 2.7066288e+10 4.2680196e+07 7.2008614e+08
876432.56 417277.16 6e-45 32882.016 20722.668 3.2447747e+09 25315.316 6e-45
5226.482 1572.4092 1.4693111e+10 15328.165 5.5576216e+07 2.7338074e+09 87009.96 6e-45
135151.88 98933.54 28328.89 3.7951585e+09 1.8984725e+08 5.667988e+09 108029.41 5.560023e+08
5964.2954 12058.098 7.5344563e+09 87488.42 69803.39 772975.0 4108.589 3.5451232e+06
34252.13 10066.559 4406.854 1.2977645e+09 3.0486659e+09 6940.6396 6e-45 9253.087
48927.965 17279.018 1.3036133e+10 5.2597724e+09 1.6165288e-05 24.318031 3.0083213e+09 6.9773624e+09
9.296175e+09 2412.4272 1.0098921e+10 2.1354684e+09 3.078007e+07 9.345403 55796.863 5.5787556e+07
1.5036062e+08 6.148331e+08 1.16110464e-26 7579.066 8282.85 6799.1553 8454.703 247591.7
3.5384558e+09 45214.31 6.6553036e+07 6e-45 505.07495 1011.0301 3.917796e+08 5.0839235e+09
5.4414445e+06 405702.84 2.3720282e+09 9242.666 345854.03 1.783513e+06 1048.1145 3.4515373e+08
1956.8557 92864.68 1.4427578e+07 1.9320476e+10 6e-45 3.6060498e+09 6.156517e+09 5.8569e+09
1.5972077e+09 417857.47 1.5763562e+09 17316.11 6.7641277e+09 6e-45 7.624354e+06 4.2251686e+09
1.0647761e+06 1.8286478e+07 10431.277 9.699779e+07 2.8306663e+10 63187.71 47635.387 2.0622249e+09
1.3124211e+09 11867.984 4.808788e+10 1.2569694e+08 798302.1 18742.146 8.3091174e+09 6711.519
2.0483731e+06 5.9417503e+09 6564.5767 2.7646118e+09 4.722161e+08 102550.79 6.4417887 104205.94
3.0351888e+06 1.0400812e+09 413.5393 7.5049876e+09 1.6230271e+09 1.4662992e+06 6.567833e+07 11722.822
6e-45 19629.654 4.0629304e+09 3.0044202e+08 3.317568e+09 6.413776e+08 3.493389e+07 3276.6064
96274.74 7979.4272 13917.055 2.1340788e+06 142754.53 3.1198512e+08 5.669703e+08 478722.16
9.465704e+08 76965.06 1.1012221e+07 8.31833e+08 6e-45 1.0167254e+09 2.4621978e+06 6.0539856e+07
494370.22 27363.06 6.111423e+08 9.829398e+09 6e-45 2809.851 119332.62 45.349285
28976.793 65256.63 3.659309e+06 2.0619906e+06 6236.904 1.1574195e+09 24322.209 3.2034043e+09
56998.773 6e-45 88.706345 2.023434e+10 2833.4534 939.8119 965154.44 0.16922493
1.8339423e+09 708018.94 5961.999 7.8681254e+08 8.753032e+08 33481.15 1.0349562e+10 2.7102717e+09
2.35351e+09 199842.77 4.9725088e+08 6.805666e+09 6.5021636e+07 6458.173 733480.8 12527.745
10901.537 7.6082104e+09 5.4887347e+09 3.553622e+08 2.4766354e+08 3.618261e+07 17939.19 3423.7073
1821.864 9484.767 4.083255e+08 14550.025 2203.4832 1702.8458 7660.2637 2.767286e+06
6.3907466e+09 3.217485e+10 10581.162 7.2915744e+08 3.3429094e+08 27036.303 22940.838 741398.44
3.1571816e+10 2532.3435 3.1398423e+10 7.78087e+08 6.906043e+08 4404.633 2.377551e+07 835.1274
82888.15 1.7717848e+09 2.2578075e+08 1503.4604 3.0713238e+08 7712.3774 2.852734e+07 1.4496596e+10
9.356089e+08 1017.11316 3.3941978e+06 244779.25 4.361814e+09 332.5422 1.5923443e+09 2.4190547

classifier.4.weight f4 [128, 256]
00000000: aa0c 073e cab6 f3bd 970e 1b3c b652 46bd
00000010: 5cd1 0b3e 5d39 a5be 66f4 6fbf acef 323a
00000020: 83a7 84bd 0e78 b1be 3293 f7bc b3f8 0dbd
00000030: eb62 e5be 459e 1e3e d9cd dd3e 70a0 4ebf
00000040: d5a3 733d e726 063f a559 d4bd a797 363e
00000050: 1e31 623e 7dbf c93e f18e 2bbe 002a 05be
00000060: 941a 33bc 0922 b7bd 08b0 7ebe f49d 9d3d
00000070: 52f9 86be 68a1 92bd 37e6 f6be 0aab 4cbe
00000080: 05cc 263e f01a b9bb 9e17 b73d 4423 17bf
00000090: f6f6 c5be 5b56 fe3d 7adf 8e3d 7519 aa3d
000000a0: a1d9 afbd d5fe af3d 09c7 95be 94ac 8bbd
000000b0: 29f9 76bd a9c7 b9be bab5 863e 5828 a8bc
000000c0: b008 4b3e 3a0e 7fbd 67b3 e83e 524f 53be
000000d0: f7fa f6be fe51 b13d ae26 05bd b136 b53e
000000e0: bf41 d1bd 2f8b 323d 8b6d f1be 8190 c13e
000000f0: 8b79 7fbe 3b33 3a3e d770 f1bd 5ec9 993c
00000100: b7f8 313e 3df0 733e 68da 3abe 9526 7ebe
00000110: 763e 52bf 946c fb3d fbef 963e f1fa 07be
00000120: 755d bfbe 601c 5dbd c3f7 723e e52d 113e
00000130: 0940 e4bc adcf 253e 0ead 153e 6ed3 763e
00000140: cdfc 42be 24f3 bb3e 6745 03bf e259 99bd
00000150: c8ba 2a3d 2859 97bc c85e 103f c95a e33e
00000160: f058 febd ea29 063e 6c3c f5bd 7dab a7bd
00000170: 9204 c5be 74fb 393d 13c6 4dbe 5766 32bf
00000180: 1ec5 a1bd 9528 103d 82e8 b9be 216f 5ebe
00000190: 1683 013e 63e1 dabd c6a8 d0bd 756b 16be
000001a0: 4439 e63d 7df0 333e 8ed0 b6be 0723 d93c
000001b0: 4037 203f 3a18 2f3e 6f99 203e 947a 8bbe
000001c0: 84c1 923d 05b8 dbbe ba9e 10be 051a cabe
000001d0: a5db 68bd d8d3 4a3e d3ae 24bd be20 d2be
000001e0: 4bf8 f5bd bf2c 7a3d 2b46 53be a91d 9ebf
000001f0: 662f cdba 979f 89be fa7e ff3d 0ed3 943d
00000200: 3877 e03c c0f3 613e e577 763e 5224 94be
00000210: bcfe b5be 8dce d93d d690 81be 3d63 c23c
00000220: aa4f 923d 465c 1abf 78e0 7cbd 883e 68be
00000230: 6653 233f 39b6 33be e439 3b3e 8974 94be
00000240: def2 6ebd 21d0 2abd 8872 3dbe e780 f2be
00000250: a346 2a3d 475c 103e c6c6 993d 491c 59bd
00000260: 5a85 c23e aa1a 233c 9785 113e 0791 c5bc
00000270: 7893 65ba e61f e3bd f2dc 1cbe 8e26 713e
00000280: b599 4e3e 0f00 c8bd e1ae dc3e ba0b 82bf
00000290: fe24 b1bc 88c2 473e 3857 a83e c122 dfbe
000002a0: dbe2 a2be d198 1c3e 4e9b bfbf ec73 1dbe
000002b0: 737d f1bc bb65 85be 4bb9 a33e 3e5a 44bd
000002c0: ed25 01be 6a4e 043e 7a41 4fbd 2791 b33e
000002d0: 0093 2b3e 8b32 babe a5b7 803d a8ba 86be
000002e0: 20a4 033e a8fa cebd 519e a33e 81df e1be
000002f0: 6a13 1dbe 02d0 a5be 0003 d4be d0d8 e43b
00000300: 798a c3be e11f 063e 024b 46bd a936 e33e
00000310: 91c1 2cbe 519d 84be 35d8 303d 33d5 843d
00000320: c44e f7be 05f8 e1bc d719 71be 9a5e e93b
00000330: ec88 3c3e c16a 0e3f 9c07 ab3e fe15 453e
00000340: 23ce 85be f72c 3dbf 85e3 0abe 811b 41be
00000350: e52e 29bf 8eb5 dd3d 50f2 fe3d c047 003d
00000360: d441 5abe e978 973e 731b edbe 0c67 a23e
00000370: cc4e fe3d e31d c6be a5a7 82bd 6217 a5be
00000380: d983 64bf fc7a d6be 1bfe 4cbe d201 0ebd
00000390: 98f6 45bf 070c 6dbe b88e b1bc 6385 1a3e
000003a0: a13d f4be 365d 383e 1201 81be 1f7a 1f3f
000003b0: 3d3e aabe d041 d4bd 5925 a8bd 7113 cd3e
000003c0: aa92 c035 9c76 60bf c62c b1bf 083b f23c
000003d0: a7be 823e 1078 ccbc 1c91 c1bd f340 2abe
000003e0: 8b74 043c 19fe 74bd 4055 2bbe 843e 39bc
000003f0: 4401 e7be c02e f9bd fd4a 233e aae9 663d
0.13188425 -0.119000986 0.009463928 -0.048418723 0.13654083 -0.32270327 -0.937323 0.0006825875
-0.06477263 -0.34661907 -0.030221555 -0.034661006 -0.4480203 0.15490063 0.43321112 -0.8071356
0.059482414 0.5240311 -0.10368661 0.17831288 0.22089049 0.39403906 -0.16753747 -0.13004303
-0.01093163 -0.089420386 -0.24871838 0.07696143 -0.2636209 -0.07159692 -0.48222515 -0.19987121
0.16288765 -0.005648963 0.089400515 -0.59038186 -0.3866498 0.12418815 0.069762185 0.08305637
-0.08586431 0.08593527 -0.29253414 -0.06820026 -0.06029621 -0.3628514 0.2631052 -0.02052705
0.19827533 -0.062269427 0.45449373 -0.20635727 -0.48238346 0.08658217 -0.03250759 0.3539329
-0.10217618 0.043589767 -0.47153887 0.3780556 -0.24948709 0.18183605 -0.117891006 0.018772777
0.17380033 0.23822112 -0.18247378 -0.24819405 -0.8212656 0.12276569 0.29479966 -0.1327932
-0.3737599 -0.05398214 0.23727326 0.14177664 -0.027862566 0.16192503 0.14616796 0.24104092
-0.19041748 0.3670894 -0.51277775 -0.07487847 0.041682035 -0.01847513 0.56394625 0.444052
-0.12419307 0.13101926 -0.11974415 -0.08187006 -0.3848005 0.04540582 -0.2009509 -0.6968741
-0.07898925 0.035194952 -0.36310202 -0.2172208 0.12647662 -0.1068752 -0.10188441 -0.14689429
0.11241391 0.17572208 -0.3570599 0.02650596 0.62584305 0.17099085 0.1568353 -0.27241957
0.071658164 -0.42913833 -0.1412305 -0.39472976 -0.056850094 0.19807374 -0.040205788 -0.41040605
-0.12010249 0.06107783 -0.20632236 -1.2352802 -0.0015654385 -0.2687957 0.12475391 0.07266818
0.027400598 0.2206564 0.24069174 -0.2893396 -0.3554591 0.106350996 -0.25305814 0.023728961
0.07144101 -0.6029705 -0.061737508 -0.22680104 0.6379913 -0.17549981 0.18283802 -0.2899516
-0.058337085 -0.041702393 -0.18500721 -0.4736397 0.04157127 0.14097701 0.07508616 -0.05300549
0.37992364 0.009955088 0.14211117 -0.024117006 -0.00087576313 -0.110900685 -0.15318659 0.23549864
0.20175822 -0.09765636 0.43102172 -1.0159829 -0.021624085 0.19507802 0.32879043 -0.43581203
-0.31813702 0.1529267 -1.496927 -0.15376252 -0.029478764 -0.26054177 0.31977305 -0.047937624
-0.12612124 0.12920538 -0.050599553 0.3507168 0.16755295 -0.36366686 0.062850274 -0.26314282
0.12855577 -0.10106403 0.31956723 -0.44115832 -0.15339437 -0.3238526 -0.4140854 0.006983854
-0.38191584 0.13098098 -0.048411377 0.4437764 -0.16870715 -0.25901273 0.04317494 0.06485977
-0.4830228 -0.027584085 -0.23545013 0.007121873 0.18411607 0.55631644 0.33404243 0.1924667
-0.26133832 -0.73896736 -0.13563354 -0.18858148 -0.6608718 0.108256444 0.12448561 0.031318426
-0.21314174 0.29584435 -0.46310005 0.31719244 0.12417373 -0.38694677 -0.06379632 -0.32244402
-0.89263684 -0.41890705 -0.20018809 -0.034669705 -0.773294 -0.2314912 -0.021674499 0.15089945
-0.4770327 0.18004307 -0.2519613 0.62295717 -0.3325061 -0.10364115 -0.082102485 0.40053895
1.43478e-06 -0.87680984 -1.3841789 0.029569164 0.2553608 -0.024959594 -0.094515055 -0.16626339
0.008084427 -0.05981264 -0.16731739 -0.011306409 -0.45118153 -0.1216712 0.15946575 0.056375183

classifier.4.bias f4 [128]
00000000: c8f7 12bd 5342 843e 475e b03e 17d7 ae3d
00000010: 0874 eabe 479b 073e d6fd 6cbe 1269 0bbf
00000020: f505 4f3f 6c41 d03e 860a 493f 0a37 843d
00000030: 277f 32bd b39d cbbe 917c 87be 9e42 d03d
00000040: bae5 51bc 1e01 b5be 25c7 583f ff3d 2abf
00000050: a606 c43e 5f9b d2be 5d13 adbd 210c d03e
00000060: 3514 43be 412d 943e 7c1f 843e 0a30 b63e
00000070: faf5 3a3d cadd d5bd 6033 3aba fcf5 fe3c
00000080: 1af7 813d 0753 8a3d 046d 21be ebef 733e
00000090: 4ef3 71be 071c 343f a774 2b3e 9ab1 d3be
000000a0: b3bb f33e 24cd b6be b0c5 163f f482 083f
000000b0: 2106 8f3f 3431 2b3f e872 9bbe c624 7cbe
000000c0: d493 1dbe 556a ccbc 8b2e 2abf d0b1 b23e
000000d0: 131c 3f3f ac20 a5be 6044 8abd 6cdf f53e
000000e0: 2c5d 423f 1e09 f0be 3440 453f adf8 b83d
000000f0: 9598 113c 807f 5a3f bf01 d4be d985 babd
00000100: 7a9e eb3c d84f d83e 4b5c 3d3f 2ec9 933e
00000110: bedc fdbd 733c 00bf 76ae 963e 16e8 0cbf
00000120: c9cd 0a3f 6c41 a43e e42f 1d3f 0bd5 863e
00000130: 97f0 9ebe f731 bf3e 4649 29be 6765 4a3f
00000140: c4ef 813f e5c3 ddbd 6036 043e cd47 8e3e
00000150: 0bd5 333f 6983 193d a99a a6bc 56a6 d9be
00000160: 81d8 53be 2c4b fc3e af8b 693f cb0b 653f
00000170: eca5 3e3f e16a 3b3d 7a19 a93e b673 403e
00000180: f82e edbc 857c b6bd f77d d83d 47dd 693c
00000190: 4963 ad3c 3636 b53e ef10 193f 4d71 e2be
000001a0: d634 543c ea01 40bf 9f81 2f3f d2bd 083f
000001b0: 844d 613e 3b33 9e3f f3c1 7f3e dfcd cb3d
000001c0: 402c af3e 965f 083d 5cb5 8bbe dc01 4d3f
000001d0: 9663 bb3e 90e6 673e 33de 6bbd 082d fc3e
000001e0: abf4 843f 9200 6f3d 0ab7 433f b452 e63e
000001f0: 281e 703e 515e 51bf 4a78 d23e 1ed3 0d3d
-0.035880834 0.2583185 0.34446928 0.08537119 -0.4579165 0.13242827 -0.23143706 -0.544572
0.80868465 0.40674913 0.7853168 0.0645581 -0.043578293 -0.39768752 -0.26462224 0.10168956
-0.012811119 -0.35352415 0.8467887 -0.6650085 0.38286322 -0.41134164 -0.08450959 0.40634254
-0.19050677 0.28940776 0.2580527 0.35583526 0.045644738 -0.104426935 -0.00071029924 0.031123154
0.06345959 0.067541175 -0.15764242 0.2382199 -0.2362797 0.70355266 0.16743718 -0.41346437
0.4760414 -0.35703385 0.588954 0.5332482 1.1173745 0.66871953 -0.30361104 -0.24623403
-0.15388423 -0.024953047 -0.6647727 0.34901285 0.7465221 -0.3225149 -0.06751323 0.4802202
0.7592342 -0.46881956 0.7705109 0.09031806 0.008886476 0.853508 -0.41407582 -0.09107561
0.028762091 0.42248416 0.7396895 0.28864425 -0.12395619 -0.5009224 0.29429978 -0.55041635
0.54220253 0.32081163 0.614012 0.26334414 -0.3104293 0.37342808 -0.16531858 0.7906098
1.0151296 -0.108283795 0.12911367 0.27789155 0.7024695 0.037478838 -0.02033742 -0.42509717
-0.20688058 0.49276102 0.91228765 0.8947112 0.74471927 0.045756225 0.3302725 0.1879414
-0.02895306 -0.08910469 0.10570901 0.014273948 0.021165507 0.35392922 0.59791464 -0.44227067
0.01295205 -0.7500292 0.6855716 0.5341464 0.22002226 1.2359384 0.2497633 0.09951376
0.34213448 0.033294283 -0.27286804 0.8008096 0.36599416 0.22646546 -0.057584953 0.49253106
1.0387167 0.058350153 0.7645117 0.44984972 0.23449004 -0.8178454 0.41107398 0.034625165

classifier.6.weight f4 [128]
00000000: 961d 8a3f 496f 783f ea7e 9f3f 8560 a43f
00000010: c23e 863f abf5 893f 092d 813f 344a 613f
00000020: 7dd5 b23f cc3d a13f f269 913f 26ca 923f
00000030: 5eb5 973f 4760 9d3f 466d 923f 7c74 8f3f
00000040: 48ca 883f a393 a53f 5540 c33f 6df9 863f
00000050: 00d3 ac3f 2fc2 913f 0e27 9c3f c0a9 b23f
00000060: 3f6a 863f 1977 923f 5c66 773f 34ee 833f
00000070: 021d bd3f 32f3 963f 38f2 9a3f ec80 773f
00000080: ee8c ae3f c262 bb3f 5f8f 913f 7ac8 d13f
00000090: f859 b33f 8f47 7a3f eb2c 803f 9ced 953f
000000a0: 3c11 983f 116e 833f 90ce 9e3f 3218 9a3f
000000b0: b5f5 953f 0122 b23f 41b7 a13f 17af a83f
000000c0: badd 9d3f 4252 8b3f 1cc5 7e3f 24b7 b53f
000000d0: b7df 833f 64b8 4c3f 1e26 9d3f 7486 c63f
000000e0: cdc5 603f 3c3d 633f 084b bc3f 5860 8e3f
000000f0: 5f1a ad3f dee8 863f c08f 6e3f 8e49 b43f
00000100: 0b5f 8f3f 8be0 6e3f 0786 a03f 3127 b73f
00000110: 87fe 993f e1a3 873f 9307 b23f bbec 863f
00000120: f1fb ac3f 329f a23f a5ba 9d3f c980 a83f
00000130: e4cf 7b3f 84a4 ae3f aad3 9e3f 9231 ad3f
00000140: e678 b63f e855 a93f a3a7 aa3f 7323 c63f
00000150: 7c12 9d3f 307c 9f3f c333 b13f a91c 613f
00000160: 364e 963f 2000 c13f 9816 a73f 5e64 ae3f
00000170: 5676 a53f 5176 b63f 9a38 8c3f 4aa7 8b3f
00000180: f085 8c3f 189c 673f 4097 ad3f d36d a73f
00000190: 8919 9b3f 5169 9d3f ebe1 c23f 6b5d 973f
000001a0: 5e97 933f 1b63 8e3f 481f b53f 6e95 5a3f
000001b0: 35d3 a63f cc2a 9f3f 3b94 ac3f e963 823f
000001c0: 2019 aa3f c6a1 933f afd8 a43f d788 a03f
000001d0: 8e7c 9c3f a4be 5f3f a3b9 a13f 1728 b33f
000001e0: 0cd5 823f e700 8f3f 751f 923f 8f74 b33f
000001f0: d876 b73f b101 ab3f eda5 a93f 7c62 823f
1.0790279 0.9704481 1.2460606 1.2841955 1.0487902 1.0778097 1.0091869 0.8800385
1.3971401 1.2596984 1.1360457 1.1467941 1.1852224 1.2295007 1.1439598 1.1207423
1.0686731 1.293568 1.5254008 1.0544869 1.3501892 1.1387385 1.2199419 1.3958054
1.0501174 1.1442596 0.96640563 1.0307069 1.4774477 1.1792967 1.2105169 0.96681094
1.3636758 1.4639513 1.1371878 1.6389306 1.4011831 0.9776544 1.0013708 1.1713138
1.188026 1.0267965 1.2406788 1.2038634 1.1715609 1.3916627 1.263405 1.3178433
1.233329 1.0884478 0.99519515 1.4196515 1.0302647 0.7996886 1.2277257 1.5509782
0.8780182 0.8876531 1.4710398 1.1123152 1.3523673 1.0539815 0.93188095 1.4084947
1.120088 0.93311375 1.2540902 1.4308835 1.20308 1.0596887 1.3908561 1.0540994
1.3514386 1.2704833 1.2322584 1.3164302 0.9836409 1.3643956 1.2408345 1.3530753
1.4255645 1.3229342 1.3332409 1.5479568 1.2271266 1.2459774 1.3843921 0.87934357
1.1742618 1.5078163 1.305377 1.362438 1.2926738 1.4254857 1.0954773 1.0910428
1.0978374 0.90472555 1.3561783 1.3080391 1.2117168 1.2297765 1.5225195 1.1825384
1.1530569 1.1123995 1.4150171 0.8538426 1.3033205 1.2434936 1.3482736 1.018674
1.3288918 1.1533744 1.2878627 1.254176 1.2225511 0.8740027 1.2634777 1.399661
1.0221267 1.117215 1.141585 1.4019946 1.4333143 1.3359891 1.3253762 1.0186305
